…
), PhysicalDevice(name='/physical_device:GPU:7', device_type='GPU')]

0.10.0
------------------------------
Constructing model...
------------------------------

Input size: (None, 144, 144, 4)
Output size: (None, 144, 144, 1)
Model summary:
Model: "model_all_layers_2"
__________________________________________________________________________________________________
Layer (type)                    Output Shape         Param #     Connected to                     
==================================================================================================
input_layer (InputLayer)        [(None, 144, 144, 4) 0                                            
__________________________________________________________________________________________________
encoder_1_a (Conv2DFlipout)     (None, 144, 144, 32) 2368        input_layer[0][0]                
__________________________________________________________________________________________________
encoder_1_b (Conv2DFlipout)     (None, 144, 144, 32) 18496       encoder_1_a[0][0]                
__________________________________________________________________________________________________
downsample_1 (MaxPooling2D)     (None, 72, 72, 32)   0           encoder_1_b[0][0]                
__________________________________________________________________________________________________
encoder_2_a (Conv2DFlipout)     (None, 72, 72, 64)   36992       downsample_1[0][0]               
__________________________________________________________________________________________________
encoder_2_b (Conv2DFlipout)     (None, 72, 72, 64)   73856       encoder_2_a[0][0]                
__________________________________________________________________________________________________
downsample_2 (MaxPooling2D)     (None, 36, 36, 64)   0           encoder_2_b[0][0]                
__________________________________________________________________________________________________
encoder_3_a (Conv2DFlipout)     (None, 36, 36, 128)  147712      downsample_2[0][0]               
__________________________________________________________________________________________________
encoder_3_b (Conv2DFlipout)     (None, 36, 36, 128)  295168      encoder_3_a[0][0]                
__________________________________________________________________________________________________
downsample_3 (MaxPooling2D)     (None, 18, 18, 128)  0           encoder_3_b[0][0]                
__________________________________________________________________________________________________
encoder_4_a (Conv2DFlipout)     (None, 18, 18, 256)  590336      downsample_3[0][0]               
__________________________________________________________________________________________________
encoder_4_b (Conv2DFlipout)     (None, 18, 18, 256)  1180160     encoder_4_a[0][0]                
__________________________________________________________________________________________________
downsample_4 (MaxPooling2D)     (None, 9, 9, 256)    0           encoder_4_b[0][0]                
__________________________________________________________________________________________________
encoder_5_a (Conv2DFlipout)     (None, 9, 9, 512)    2360320     downsample_4[0][0]               
__________________________________________________________________________________________________
encoder_5_b (Conv2DFlipout)     (None, 9, 9, 512)    4719616     encoder_5_a[0][0]                
__________________________________________________________________________________________________
upsample_4 (UpSampling2D)       (None, 18, 18, 512)  0           encoder_5_b[0][0]                
__________________________________________________________________________________________________
concat_4 (Concatenate)          (None, 18, 18, 768)  0           upsample_4[0][0]                 
                                                                 encoder_4_b[0][0]                
__________________________________________________________________________________________________
decoder_4_a (Conv2DFlipout)     (None, 18, 18, 256)  3539456     concat_4[0][0]                   
__________________________________________________________________________________________________
decoder_4_b (Conv2DFlipout)     (None, 18, 18, 256)  1180160     decoder_4_a[0][0]                
__________________________________________________________________________________________________
upsample_3 (UpSampling2D)       (None, 36, 36, 256)  0           decoder_4_b[0][0]                
__________________________________________________________________________________________________
concat_3 (Concatenate)          (None, 36, 36, 384)  0           upsample_3[0][0]                 
                                                                 encoder_3_b[0][0]                
__________________________________________________________________________________________________
decoder_3_a (Conv2DFlipout)     (None, 36, 36, 128)  884992      concat_3[0][0]                   
__________________________________________________________________________________________________
decoder_3_b (Conv2DFlipout)     (None, 36, 36, 128)  295168      decoder_3_a[0][0]                
__________________________________________________________________________________________________
upsample_2 (UpSampling2D)       (None, 72, 72, 128)  0           decoder_3_b[0][0]                
__________________________________________________________________________________________________
concat_2 (Concatenate)          (None, 72, 72, 192)  0           upsample_2[0][0]                 
                                                                 encoder_2_b[0][0]                
__________________________________________________________________________________________________
decoder_2_a (Conv2DFlipout)     (None, 72, 72, 64)   221312      concat_2[0][0]                   
__________________________________________________________________________________________________
decoder_2_b (Conv2DFlipout)     (None, 72, 72, 64)   73856       decoder_2_a[0][0]                
__________________________________________________________________________________________________
upsample_1 (UpSampling2D)       (None, 144, 144, 64) 0           decoder_2_b[0][0]                
__________________________________________________________________________________________________
concat_1 (Concatenate)          (None, 144, 144, 96) 0           upsample_1[0][0]                 
                                                                 encoder_1_b[0][0]                
__________________________________________________________________________________________________
decoder_1_a (Conv2DFlipout)     (None, 144, 144, 32) 55360       concat_1[0][0]                   
__________________________________________________________________________________________________
decoder_1_b (Conv2DFlipout)     (None, 144, 144, 32) 18496       decoder_1_a[0][0]                
__________________________________________________________________________________________________
output_layer (Conv2D)           (None, 144, 144, 1)  33          decoder_1_b[0][0]                
==================================================================================================
Total params: 15,693,857
Trainable params: 15,693,857
Non-trainable params: 0
__________________________________________________________________________________________________
None
Model losses:
[<tf.Tensor: shape=(), dtype=float32, numpy=10034.745>, <tf.T
…
